…
I1204 21:05:30.595861  2139 net.cpp:322] The NetState phase (0) differed from the phase (1) specified by a rule in layer accuracy
I1204 21:05:30.596055  2139 net.cpp:49] Initializing net from parameters: 
name: "VGG_FACE_16_layers"
state {
  phase: TRAIN
}
layer {
  name: "data"
  type: "Data"
  top: "data"
  top: "label"
  include {
    phase: TRAIN
  }
  transform_param {
    mirror: true
    crop_size: 224
    mean_file: "/home/deepir/data/batch_1_1/train_lmdb/mean.binaryproto"
  }
  data_param {
    source: "/home/deepir/data/batch_1_1/train_lmdb"
    batch_size: 64
    backend: LMDB
  }
}
layer {
  name: "conv1_1"
  type: "Convolution"
  bottom: "data"
  top: "conv1_1"
  param {
    lr_mult: 0
    decay_mult: 0
  }
  param {
    lr_mult: 0
    decay_mult: 0
  }
  convolution_param {
    num_output: 64
    pad: 1
    kernel_size: 3
  }
}
layer {
  name: "relu1_1"
  type: "ReLU"
  bottom: "conv1_1"
  top: "conv1_1"
}
layer {
  name: "conv1_2"
  type: "Convolution"
  bottom: "conv1_1"
  top: "conv1_2"
  param {
    lr_mult: 0
    decay_mult: 0
  }
  param {
    lr_mult: 0
    decay_mult: 0
  }
  convolution_param {
    num_output: 64
    pad: 1
    kernel_size: 3
  }
}
layer {
  name: "relu1_2"
  type: "ReLU"
  bottom: "conv1_2"
  top: "conv1_2"
}
layer {
  name: "pool1"
  type: "Pooling"
  bottom: "conv1_2"
  top: "pool1"
  pooling_param {
    pool: MAX
    kernel_size: 2
    stride: 2
  }
}
layer {
  name: "conv2_1"
  type: "Convolution"
  bottom: "pool1"
  top: "conv2_1"
  param {
    lr_mult: 0
    decay_mult: 0
  }
  param {
    lr_mult: 0
    decay_mult: 0
  }
  convolution_param {
    num_output: 128
    pad: 1
    kernel_size: 3
  }
}
layer {
  name: "relu2_1"
  type: "ReLU"
  bottom: "conv2_1"
  top: "conv2_1"
}
layer {
  name: "conv2_2"
  type: "Convolution"
  bottom: "conv2_1"
  top: "conv2_2"
  param {
    lr_mult: 0
    decay_mult: 0
  }
  param {
    lr_mult: 0
    decay_mult: 0
  }
  convolution_param {
    num_output: 128
    pad: 1
    kernel_size: 3
  }
}
layer {
  name: "relu2_2"
  type: "ReLU"
  bottom: "conv2_2"
  top: "conv2_2"
}
layer {
  name: "pool2"
  type: "Pooling"
  bottom: "conv2_2"
  top: "pool2"
  pooling_param {
    pool: MAX
    kernel_size: 2
    stride: 2
  }
}
layer {
  name: "conv3_1"
  type: "Convolution"
  bottom: "pool2"
  top: "conv3_1"
  param {
    lr_mult: 1
  }
  param {
    lr_mult: 2
  }
  convolution_param {
    num_output: 256
    pad: 1
    kernel_size: 3
  }
}
layer {
  name: "relu3_1"
  type: "ReLU"
  bottom: "conv3_1"
  top: "conv3_1"
}
layer {
  name: "conv3_2"
  type: "Convolution"
  bottom: "conv3_1"
  top: "conv3_2"
  param {
    lr_mult: 1
  }
  param {
    lr_mult: 2
  }
  convolution_param {
    num_output: 256
    pad: 1
    kernel_size: 3
  }
}
layer {
  name: "relu3_2"
  type: "ReLU"
  bottom: "conv3_2"
  top: "conv3_2"
}
layer {
  name: "conv3_3"
  type: "Convolution"
  bottom: "conv3_2"
  top: "conv3_3"
  param {
    lr_mult: 1
  }
  param {
    lr_mult: 2
  }
  convolution_param {
    num_output: 256
    pad: 1
    kernel_size: 3
  }
}
layer {
  name: "relu3_3"
  type: "ReLU"
  bottom: "conv3_3"
  top: "conv3_3"
}
layer {
  name: "pool3"
  type: "Pooling"
  bottom: "conv3_3"
  top: "pool3"
  pooling_param {
    pool: MAX
    kernel_size: 2
    stride: 2
  }
}
layer {
  name: "conv4_1"
  type: "Convolution"
  bottom: "pool3"
  top: "conv4_1"
  param {
    lr_mult: 1
  }
  param {
    lr_mult: 2
  }
  convolution_param {
    num_output: 512
    pad: 1
    kernel_size: 3
  }
}
layer {
  name: "relu4_1"
  type: "ReLU"
  bottom: "conv4_1"
  top: "conv4_1"
}
layer {
  name: "conv4_2"
  type: "Convolution"
  bottom: "conv4_1"
  top: "conv4_2"
  param {
    lr_mult: 1
  }
  param {
    lr_mult: 2
  }
  convolution_param {
    num_output: 512
    pad: 1
    kernel_size: 3
  }
}
layer {
  name: "relu4_2"
  type: "ReLU"
  bottom: "conv4_2"
  top: "conv4_2"
}
layer {
  name: "conv4_3"
  type: "Convolution"
  bottom: "conv4_2"
  top: "conv4_3"
  param {
    lr_mult: 1
  }
  param {
    lr_mult: 2
  }
  convolution_param {
    num_output: 512
    pad: 1
    kernel_size: 3
  }
}
layer {
  name: "relu4_3"
  type: "ReLU"
  bottom: "conv4_3"
  top: "conv4_3"
}
layer {
  name: "pool4"
  type: "Pooling"
  bottom: "conv4_3"
  top: "pool4"
  pooling_param {
    pool: MAX
    kernel_size: 2
    stride: 2
  }
}
layer {
  name: "conv5_1"
  type: "Convolution"
  bottom: "pool4"
  top: "conv5_1"
  param {
    lr_mult: 1
  }
  param {
    lr_mult: 2
  }
  convolution_param {
    num_output: 512
    pad: 1
    kernel_size: 3
  }
}
layer {
  name: "relu5_1"
  type: "ReLU"
  bottom: "conv5_1"
  top: "conv5_1"
}
layer {
  name: "conv5_2"
  type: "Convolution"
  bottom: "conv5_1"
  top: "conv5_2"
  param {
    lr_mult: 1
  }
  param {
    lr_mult: 2
  }
  convolution_param {
    num_output: 512
    pad: 1
    kernel_size: 3
  }
}
layer {
  name: "relu5_2"
  type: "ReLU"
  bottom: "conv5_2"
  top: "conv5_2"
}
layer {
  name: "conv5_3"
  type: "Convolution"
  bottom: "conv5_2"
  top: "conv5_3"
  param {
    lr_mult: 1
  }
  param {
    lr_mult: 2
  }
  convolution_param {
    num_output: 512
    pad: 1
    kernel_size: 3
  }
}
layer {
  name: "relu5_3"
  type: "ReLU"
  bottom: "conv5_3"
  top: "conv5_3"
}
layer {
  name: "pool5"
  type: "Pooling"
  bottom: "conv5_3"
  top: "pool5"
  pooling_param {
    pool: MAX
    kernel_size: 2
    stride: 2
  }
}
layer {
  name: "fc6"
  type: "InnerProduct"
  bottom: "pool5"
  top: "fc6"
  param {
    lr_mult: 1
  }
  param {
    lr_mult: 2
  }
  inner_product_param {
    num_output: 4096
  }
}
layer {
  name: "relu6"
  type: "ReLU"
  bottom: "fc6"
  top: "fc6"
}
layer {
  name: "drop6"
  type: "Dropout"
  bottom: "fc6"
  top: "fc6"
  dropout_param {
    dropout_ratio: 0.5
  }
}
layer {
  name: "fc7"
  type: "InnerProduct"
  bottom: "fc6"
  top: "fc7"
  param {
    lr_mult: 1
  }
  param {
    lr_mult: 2
  }
  inner_product_param {
    num_output: 4096
  }
}
layer {
  name: "relu7"
  type: "ReLU"
  bottom: "fc7"
  top: "fc7"
}
layer {
  name: "drop7"
  type: "Dropout"
  bottom: "fc7"
  top: "fc7"
  dropout_param {
    dropout_ratio: 0.5
  }
}
layer {
  name: "cls_label"
  type: "InnerProduct"
  bottom: "fc7"
  top: "cls_label"
  inner_product_param {
    num_output: 650
  }
}
layer {
  name: "loss_cls"
  type: "SoftmaxWithLoss"
  bottom: "cls_label"
  bottom: "label"
  top: "loss_cls"
  loss_weight: 1
  propagate_down: true
  propagate_down: false
}
I1204 21:05:30.596667  2139 layer_factory.hpp:77] Creating layer data
I1204 21:05:30.597395  2139 net.cpp:106] Creating Layer data
I1204 21:05:30.597432  2139 net.cpp:411] data -> data
I1204 21:05:30.597571  2139 net.cpp:411] data -> label
I1204 21:05:30.597600  2139 data_transformer.cpp:25] Loading mean file from: /home/deepir/data/batch_1_1/train_lmdb/mean.binaryproto
I1204 21:05:30.598312  2146 db_lmdb.cpp:38] Opened lmdb /home/deepir/data/batch_1_1/train_lmdb
I1204 21:05:30.622809  2139 data_layer.cpp:41] output data size: 64,3,224,224
I1204 21:05:30.677196  2139 base_data_layer.cpp:69] Initializing prefetch
I1204 21:05:30.677363  2139 base_data_layer.cpp:72] Prefetch initialized.
I1204 21:05:30.677374  2139 net.cpp:150] Setting up data
I1204 21:05:30.677475  2139 net.cpp:157] Top shape: 64 3 224 224 (9633792)
I1204 21:05:30.677501  2139 net.cpp:157] Top shape: 64 (64)
I1204 21:05:30.677505  2139 net.cpp:165] Memory required for data: 38535424
I1204 21:05:30.677597  2139 layer_factory.hpp:77] Creating layer conv1_1
I1204 21:05:30.677724  2139 net.cpp:106] Creating Layer conv1_1
I1204 21:05:30.677755  2139 net.cpp:454] conv1_1 <- data
I1204 21:05:30.677806  2139 net.cpp:411] conv1_1 -> conv1_1
I1204 21:05:30.748927  2147 data_layer.cpp:102] Prefetch batch: 70 ms.
I1204 21:05:30.749023  2147 data_layer.cpp:103]      Read time: 0.093 ms.
I1204 21:05:30.749049  2147 data_layer.cpp:104] Transform time: 63.472 ms.
I1204 21:05:30.813442  2139 net.cpp:150] Setting up conv1_1
I1204 21:05:30.813515  2139 net.cpp:157] Top shape: 64 64 224 224 (205520896)
I1204 21:05:30.813520  2139 net.cpp:165] Memory required for data: 860619008
I1204 21:05:30.813617  2139 layer_factory.hpp:77] Creating layer relu1_1
I1204 21:05:30.813657  2139 net.cpp:106] Creating Layer relu1_1
I1204 21:05:30.813665  2139 net.cpp:454] relu1_1 <- conv1_1
I1204 21:05:30.813683  2139 net.cpp:397] relu1_1 -> conv1_1 (in-place)
I1204 21:05:30.814003  2139 net.cpp:150] Setting up relu1_1
I1204 21:05:30.814033  2139 net.cpp:157] Top shape: 64 64 224 224 (205520896)
I1204 21:05:30.814036  2139 net.cpp:165] Memory required for data: 1682702592
I1204 21:05:30.814041  2139 layer_factory.hpp:77] Creating layer conv1_2
I1204 21:05:30.814080  2139 net.cpp:106] Creating Layer conv1_2
I1204 21:05:30.814086  2139 net.cpp:454] conv1_2 <- conv1_1
I1204 21:05:30.814101  2139 net.cpp:411] conv1_2 -> conv1_2
I1204 21:05:30.815074  2139 net.cpp:150] Setting up conv1_2
I1204 21:05:30.815109  2139 net.cpp:157] Top shape: 64 64 224 224 (205520896)
I1204 21:05:30.815114  2139 net.cpp:165] Memory required for data: 2504786176
I1204 21:05:30.815150  2139 layer_factory.hpp:77] Creating layer relu1_2
I1204 21:05:30.815166  2139 net.cpp:106] Creating Layer relu1_2
I1204 21:05:30.815172  2139 net.cpp:454] relu1_2 <- conv1_2
I1204 21:05:30.815184  2139 net.cpp:397] relu1_2 -> conv1_2 (in-place)
I1204 21:05:30.815441  2139 net.cpp:150] Setting up relu1_2
I1204 21:05:30.815469  2139 net.cpp:157] Top shape: 64 64 224 224 (205520896)
I1204 21:05:30.815472  2139 net.cpp:165] Memory required for data: 3326869760
I1204 21:05:30.815477  2139 layer_factory.hpp:77] Creating layer pool1
I1204 21:05:30.815515  2139 net.cpp:106] Creating Layer pool1
I1204 21:05:30.815521  2139 net.cpp:454] pool1 <- conv1_2
I1204 21:05:30.815533  2139 net.cpp:411] pool1 -> pool1
I1204 21:05:30.815598  2139 net.cpp:150] Setting up pool1
I1204 21:05:30.815608  2139 net.cpp:157] Top shape: 64 64 112 112 (51380224)
I1204 21:05:30.815610  2139 net.cpp:165] Memory required for data: 3532390656
I1204 21:05:30.815614  2139 layer_factory.hpp:77] Creating layer conv2_1
I1204 21:05:30.815649  2139 net.cpp:106] Creating Layer conv2_1
I1204 21:05:30.815670  2139 net.cpp:454] conv2_1 <- pool1
I1204 21:05:30.815701  2139 net.cpp:411] conv2_1 -> conv2_1
I1204 21:05:30.817162  2139 cudnn_conv_layer.cpp:194] Reallocating workspace storage: 6912
I1204 21:05:30.817358  2139 net.cpp:150] Setting up conv2_1
I1204 21:05:30.817370  2139 net.cpp:157] Top shape: 64 128 112 112 (102760448)
I1204 21:05:30.817373  2139 net.cpp:165] Memory required for data: 3943432448
I1204 21:05:30.817414  2139 layer_factory.hpp:77] Creating layer relu2_1
I1204 21:05:30.817463  2139 net.cpp:106] Creating Layer relu2_1
I1204 21:05:30.817486  2139 net.cpp:454] relu2_1 <- conv2_1
I1204 21:05:30.817498  2139 net.cpp:397] relu2_1 -> conv2_1 (in-place)
I1204 21:05:30.817708  2139 net.cpp:150] Setting up relu2_1
I1204 21:05:30.817716  2139 net.cpp:157] Top shape: 64 128 112 112 (102760448)
I1204 21:05:30.817719  2139 net.cpp:165] Memory required for data: 4354474240
I1204 21:05:30.817723  2139 layer_factory.hpp:77] Creating layer conv2_2
I1204 21:05:30.817761  2139 net.cpp:106] Creating Layer conv2_2
I1204 21:05:30.817767  2139 net.cpp:454] conv2_2 <- conv2_1
I1204 21:05:30.817798  2139 net.cpp:411] conv2_2 -> conv2_2
I1204 21:05:30.819407  2139 cudnn_conv_layer.cpp:194] Reallocating workspace storage: 13824
I1204 21:05:30.819448  2139 net.cpp:150] Setting up conv2_2
I1204 21:05:30.819480  2139 net.cpp:157] Top shape: 64 128 112 112 (102760448)
I1204 21:05:30.819516  2139 net.cpp:165] Memory required for data: 4765516032
I1204 21:05:30.819550  2139 layer_factory.hpp:77] Creating layer relu2_2
I1204 21:05:30.819569  2139 net.cpp:106] Creating Layer relu2_2
I1204 21:05:30.819578  2139 net.cpp:454] relu2_2 <- conv2_2
I1204 21:05:30.819614  2139 net.cpp:397] relu2_2 -> conv2_2 (in-place)
I1204 21:05:30.819921  2139 net.cpp:150] Setting up relu2_2
I1204 21:05:30.819932  2139 net.cpp:157] Top shape: 64 128 112 112 (102760448)
I1204 21:05:30.819936  2139 net.cpp:165] Memory required for data: 5176557824
I1204 21:05:30.819941  2139 layer_factory.hpp:77] Creating layer pool2
I1204 21:05:30.819970  2139 net.cpp:106] Creating Layer pool2
I1204 21:05:30.819977  2139 net.cpp:454] pool2 <- conv2_2
I1204 21:05:30.820006  2139 net.cpp:411] pool2 -> pool2
I1204 21:05:30.820108  2139 net.cpp:150] Setting up pool2
I1204 21:05:30.820117  2139 net.cpp:157] Top shape: 64 128 56 56 (25690112)
I1204 21:05:30.820121  2139 net.cpp:165] Memory required for data: 5279318272
I1204 21:05:30.820124  2139 layer_factory.hpp:77] Creating layer conv3_1
I1204 21:05:30.820140  2139 net.cpp:106] Creating Layer conv3_1
I1204 21:05:30.820164  2139 net.cpp:454] conv3_1 <- pool2
I1204 21:05:30.820178  2139 net.cpp:411] conv3_1 -> conv3_1
I1204 21:05:30.822005  2139 cudnn_conv_layer.cpp:194] Reallocating workspace storage: 13824
I1204 21:05:30.822024  2139 net.cpp:150] Setting up conv3_1
I1204 21:05:30.822051  2139 net.cpp:157] Top shape: 64 256 56 56 (51380224)
I1204 21:05:30.822053  2139 net.cpp:165] Memory required for data: 5484839168
I1204 21:05:30.822093  2139 layer_factory.hpp:77] Creating layer relu3_1
I1204 21:05:30.822123  2139 net.cpp:106] Creating Layer relu3_1
I1204 21:05:30.822130  2139 net.cpp:454] relu3_1 <- conv3_1
I1204 21:05:30.822160  2139 net.cpp:397] relu3_1 -> conv3_1 (in-place)
I1204 21:05:30.822430  2139 net.cpp:150] Setting up relu3_1
I1204 21:05:30.822440  2139 net.cpp:157] Top shape: 64 256 56 56 (51380224)
I1204 21:05:30.822443  2139 net.cpp:165] Memory required for data: 5690360064
I1204 21:05:30.822448  2139 layer_factory.hpp:77] Creating layer conv3_2
I1204 21:05:30.822505  2139 net.cpp:106] Creating Layer conv3_2
I1204 21:05:30.822528  2139 net.cpp:454] conv3_2 <- conv3_1
I1204 21:05:30.822546  2139 net.cpp:411] conv3_2 -> conv3_2
I1204 21:05:30.825179  2139 cudnn_conv_layer.cpp:194] Reallocating workspace storage: 27648
I1204 21:05:30.825222  2139 net.cpp:150] Setting up conv3_2
I1204 21:05:30.825248  2139 net.cpp:157] Top shape: 64 256 56 56 (51380224)
I1204 21:05:30.825250  2139 net.cpp:165] Memory required for data: 5895880960
I1204 21:05:30.825265  2139 layer_factory.hpp:77] Creating layer relu3_2
I1204 21:05:30.825300  2139 net.cpp:106] Creating Layer relu3_2
I1204 21:05:30.825309  2139 net.cpp:454] relu3_2 <- conv3_2
I1204 21:05:30.825325  2139 net.cpp:397] relu3_2 -> conv3_2 (in-place)
I1204 21:05:30.825557  2139 net.cpp:150] Setting up relu3_2
I1204 21:05:30.825567  2139 net.cpp:157] Top shape: 64 256 56 56 (51380224)
I1204 21:05:30.825569  2139 net.cpp:165] Memory required for data: 6101401856
I1204 21:05:30.825573  2139 layer_factory.hpp:77] Creating layer conv3_3
I1204 21:05:30.825623  2139 net.cpp:106] Creating Layer conv3_3
I1204 21:05:30.825629  2139 net.cpp:454] conv3_3 <- conv3_2
I1204 21:05:30.825661  2139 net.cpp:411] conv3_3 -> conv3_3
I1204 21:05:30.828599  2139 cudnn_conv_layer.cpp:194] Reallocating workspace storage: 27648
I1204 21:05:30.828631  2139 net.cpp:150] Setting up conv3_3
I1204 21:05:30.828645  2139 net.cpp:157] Top shape: 64 256 56 56 (51380224)
I1204 21:05:30.828649  2139 net.cpp:165] Memory required for data: 6306922752
I1204 21:05:30.828672  2139 layer_factory.hpp:77] Creating layer relu3_3
I1204 21:05:30.828721  2139 net.cpp:106] Creating Layer relu3_3
I1204 21:05:30.828732  2139 net.cpp:454] relu3_3 <- conv3_3
I1204 21:05:30.828748  2139 net.cpp:397] relu3_3 -> conv3_3 (in-place)
I1204 21:05:30.829110  2139 net.cpp:150] Setting up relu3_3
I1204 21:05:30.829120  2139 net.cpp:157] Top shape: 64 256 56 56 (51380224)
I1204 21:05:30.829155  2139 net.cpp:165] Memory required for data: 6512443648
I1204 21:05:30.829161  2139 layer_factory.hpp:77] Creating layer pool3
I1204 21:05:30.829179  2139 net.cpp:106] Creating Layer pool3
I1204 21:05:30.829185  2139 net.cpp:454] pool3 <- conv3_3
I1204 21:05:30.829200  2139 net.cpp:411] pool3 -> pool3
I1204 21:05:30.829252  2139 net.cpp:150] Setting up pool3
I1204 21:05:30.829262  2139 net.cpp:157] Top shape: 64 256 28 28 (12845056)
I1204 21:05:30.829265  2139 net.cpp:165] Memory required for data: 6563823872
I1204 21:05:30.829269  2139 layer_factory.hpp:77] Creating layer conv4_1
I1204 21:05:30.829310  2139 net.cpp:106] Creating Layer conv4_1
I1204 21:05:30.829334  2139 net.cpp:454] conv4_1 <- pool3
I1204 21:05:30.829346  2139 net.cpp:411] conv4_1 -> conv4_1
I1204 21:05:30.834496  2139 cudnn_conv_layer.cpp:194] Reallocating workspace storage: 27648
I1204 21:05:30.834522  2139 net.cpp:150] Setting up conv4_1
I1204 21:05:30.834550  2139 net.cpp:157] Top shape: 64 512 28 28 (25690112)
I1204 21:05:30.834553  2139 net.cpp:165] Memory required for data: 6666584320
I1204 21:05:30.834586  2139 layer_factory.hpp:77] Creating layer relu4_1
I1204 21:05:30.834630  2139 net.cpp:106] Creating Layer relu4_1
I1204 21:05:30.834640  2139 net.cpp:454] relu4_1 <- conv4_1
I1204 21:05:30.834692  2139 net.cpp:397] relu4_1 -> conv4_1 (in-place)
I1204 21:05:30.835000  2139 net.cpp:150] Setting up relu4_1
I1204 21:05:30.835011  2139 net.cpp:157] Top shape: 64 512 28 28 (25690112)
I1204 21:05:30.835013  2139 net.cpp:165] Memory required for data: 6769344768
I1204 21:05:30.835018  2139 layer_factory.hpp:77] Creating layer conv4_2
I1204 21:05:30.835069  2139 net.cpp:106] Creating Layer conv4_2
I1204 21:05:30.835091  2139 net.cpp:454] conv4_2 <- conv4_1
I1204 21:05:30.835124  2139 net.cpp:411] conv4_2 -> conv4_2
I1204 21:05:30.835914  2147 data_layer.cpp:102] Prefetch batch: 71 ms.
I1204 21:05:30.835942  2147 data_layer.cpp:103]      Read time: 0.122 ms.
I1204 21:05:30.835947  2147 data_layer.cpp:104] Transform time: 65.236 ms.
I1204 21:05:30.843200  2139 cudnn_conv_layer.cpp:194] Reallocating workspace storage: 55296
I1204 21:05:30.843276  2139 net.cpp:150] Setting up conv4_2
I1204 21:05:30.843324  2139 net.cpp:157] Top shape: 64 512 28 28 (25690112)
I1204 21:05:30.843329  2139 net.cpp:165] Memory required for data: 6872105216
I1204 21:05:30.843423  2139 layer_factory.hpp:77] Creating layer relu4_2
I1204 21:05:30.843479  2139 net.cpp:106] Creating Layer relu4_2
I1204 21:05:30.843507  2139 net.cpp:454] relu4_2 <- conv4_2
I1204 21:05:30.843523  2139 net.cpp:397] relu4_2 -> conv4_2 (in-place)
I1204 21:05:30.849632  2139 net.cpp:150] Setting up relu4_2
I1204 21:05:30.849647  2139 net.cpp:157] Top shape: 64 512 28 28 (25690112)
I1204 21:05:30.849650  2139 net.cpp:165] Memory required for data: 6974865664
I1204 21:05:30.849673  2139 layer_factory.hpp:77] Creating layer conv4_3
I1204 21:05:30.849691  2139 net.cpp:106] Creating Layer conv4_3
I1204 21:05:30.849699  2139 net.cpp:454] conv4_3 <- conv4_2
I1204 21:05:30.849748  2139 net.cpp:411] conv4_3 -> conv4_3
I1204 21:05:30.858208  2139 cudnn_conv_layer.cpp:194] Reallocating workspace storage: 55296
I1204 21:05:30.858259  2139 net.cpp:150] Setting up conv4_3
I1204 21:05:30.858279  2139 net.cpp:157] Top shape: 64 512 28 28 (25690112)
I1204 21:05:30.858283  2139 net.cpp:165] Memory required for data: 7077626112
I1204 21:05:30.858333  2139 layer_factory.hpp:77] Creating layer relu4_3
I1204 21:05:30.858367  2139 net.cpp:106] Creating Layer relu4_3
I1204 21:05:30.858379  2139 net.cpp:454] relu4_3 <- conv4_3
I1204 21:05:30.858422  2139 net.cpp:397] relu4_3 -> conv4_3 (in-place)
I1204 21:05:30.858748  2139 net.cpp:150] Setting up relu4_3
I1204 21:05:30.858759  2139 net.cpp:157] Top shape: 64 512 28 28 (25690112)
I1204 21:05:30.858762  2139 net.cpp:165] Memory required for data: 7180386560
I1204 21:05:30.858767  2139 layer_factory.hpp:77] Creating layer pool4
I1204 21:05:30.858801  2139 net.cpp:106] Creating Layer pool4
I1204 21:05:30.858808  2139 net.cpp:454] pool4 <- conv4_3
I1204 21:05:30.858855  2139 net.cpp:411] pool4 -> pool4
I1204 21:05:30.858929  2139 net.cpp:150] Setting up pool4
I1204 21:05:30.858974  2139 net.cpp:157] Top shape: 64 512 14 14 (6422528)
I1204 21:05:30.858978  2139 net.cpp:165] Memory required for data: 7206076672
I1204 21:05:30.858981  2139 layer_factory.hpp:77] Creating layer conv5_1
I1204 21:05:30.859019  2139 net.cpp:106] Creating Layer conv5_1
I1204 21:05:30.859025  2139 net.cpp:454] conv5_1 <- pool4
I1204 21:05:30.859040  2139 net.cpp:411] conv5_1 -> conv5_1
I1204 21:05:30.867569  2139 cudnn_conv_layer.cpp:194] Reallocating workspace storage: 55296
I1204 21:05:30.867595  2139 net.cpp:150] Setting up conv5_1
I1204 21:05:30.867625  2139 net.cpp:157] Top shape: 64 512 14 14 (6422528)
I1204 21:05:30.867630  2139 net.cpp:165] Memory required for data: 7231766784
I1204 21:05:30.867645  2139 layer_factory.hpp:77] Creating layer relu5_1
I1204 21:05:30.867700  2139 net.cpp:106] Creating Layer relu5_1
I1204 21:05:30.867728  2139 net.cpp:454] relu5_1 <- conv5_1
I1204 21:05:30.867748  2139 net.cpp:397] relu5_1 -> conv5_1 (in-place)
I1204 21:05:30.868034  2139 net.cpp:150] Setting up relu5_1
I1204 21:05:30.868043  2139 net.cpp:157] Top shape: 64 512 14 14 (6422528)
I1204 21:05:30.868062  2139 net.cpp:165] Memory required for data: 7257456896
I1204 21:05:30.868068  2139 layer_factory.hpp:77] Creating layer conv5_2
I1204 21:05:30.868119  2139 net.cpp:106] Creating Layer conv5_2
I1204 21:05:30.868125  2139 net.cpp:454] conv5_2 <- conv5_1
I1204 21:05:30.868140  2139 net.cpp:411] conv5_2 -> conv5_2
I1204 21:05:30.877197  2139 cudnn_conv_layer.cpp:194] Reallocating workspace storage: 55296
I1204 21:05:30.877220  2139 net.cpp:150] Setting up conv5_2
I1204 21:05:30.877269  2139 net.cpp:157] Top shape: 64 512 14 14 (6422528)
I1204 21:05:30.877274  2139 net.cpp:165] Memory required for data: 7283147008
I1204 21:05:30.877295  2139 layer_factory.hpp:77] Creating layer relu5_2
I1204 21:05:30.877346  2139 net.cpp:106] Creating Layer relu5_2
I1204 21:05:30.877355  2139 net.cpp:454] relu5_2 <- conv5_2
I1204 21:05:30.877373  2139 net.cpp:397] relu5_2 -> conv5_2 (in-place)
I1204 21:05:30.877619  2139 net.cpp:150] Setting up relu5_2
I1204 21:05:30.877626  2139 net.cpp:157] Top shape: 64 512 14 14 (6422528)
I1204 21:05:30.877629  2139 net.cpp:165] Memory required for data: 7308837120
I1204 21:05:30.877634  2139 layer_factory.hpp:77] Creating layer conv5_3
I1204 21:05:30.877668  2139 net.cpp:106] Creating Layer conv5_3
I1204 21:05:30.877673  2139 net.cpp:454] conv5_3 <- conv5_2
I1204 21:05:30.877706  2139 net.cpp:411] conv5_3 -> conv5_3
I1204 21:05:30.885913  2139 cudnn_conv_layer.cpp:194] Reallocating workspace storage: 55296
I1204 21:05:30.886101  2139 net.cpp:150] Setting up conv5_3
I1204 21:05:30.886117  2139 net.cpp:157] Top shape: 64 512 14 14 (6422528)
I1204 21:05:30.886121  2139 net.cpp:165] Memory required for data: 7334527232
I1204 21:05:30.886142  2139 layer_factory.hpp:77] Creating layer relu5_3
I1204 21:05:30.886167  2139 net.cpp:106] Creating Layer relu5_3
I1204 21:05:30.886175  2139 net.cpp:454] relu5_3 <- conv5_3
I1204 21:05:30.886194  2139 net.cpp:397] relu5_3 -> conv5_3 (in-place)
I1204 21:05:30.886502  2139 net.cpp:150] Setting up relu5_3
I1204 21:05:30.886529  2139 net.cpp:157] Top shape: 64 512 14 14 (6422528)
I1204 21:05:30.886533  2139 net.cpp:165] Memory required for data: 7360217344
I1204 21:05:30.886538  2139 layer_factory.hpp:77] Creating layer pool5
I1204 21:05:30.886554  2139 net.cpp:106] Creating Layer pool5
I1204 21:05:30.886575  2139 net.cpp:454] pool5 <- conv5_3
I1204 21:05:30.886590  2139 net.cpp:411] pool5 -> pool5
I1204 21:05:30.886648  2139 net.cpp:150] Setting up pool5
I1204 21:05:30.886656  2139 net.cpp:157] Top shape: 64 512 7 7 (1605632)
I1204 21:05:30.886659  2139 net.cpp:165] Memory required for data: 7366639872
I1204 21:05:30.886663  2139 layer_factory.hpp:77] Creating layer fc6
I1204 21:05:30.886690  2139 net.cpp:106] Creating Layer fc6
I1204 21:05:30.886698  2139 net.cpp:454] fc6 <- pool5
I1204 21:05:30.886710  2139 net.cpp:411] fc6 -> fc6
I1204 21:05:30.916622  2147 data_layer.cpp:102] Prefetch batch: 73 ms.
I1204 21:05:30.916774  2147 data_layer.cpp:103]      Read time: 0.171 ms.
I1204 21:05:30.916786  2147 data_layer.cpp:104] Transform time: 66.234 ms.
I1204 21:05:31.168937  2139 net.cpp:150] Setting up fc6
I1204 21:05:31.168965  2139 net.cpp:157] Top shape: 64 4096 (262144)
I1204 21:05:31.168969  2139 net.cpp:165] Memory required for data: 7367688448
I1204 21:05:31.169021  2139 layer_factory.hpp:77] Creating layer relu6
I1204 21:05:31.169066  2139 net.cpp:106] Creating Layer relu6
I1204 21:05:31.169091  2139 net.cpp:454] relu6 <- fc6
I1204 21:05:31.169129  2139 net.cpp:397] relu6 -> fc6 (in-place)
I1204 21:05:31.169406  2139 net.cpp:150] Setting up relu6
I1204 21:05:31.169415  2139 net.cpp:157] Top shape: 64 4096 (262144)
I1204 21:05:31.169419  2139 net.cpp:165] Memory required for data: 7368737024
I1204 21:05:31.169422  2139 layer_factory.hpp:77] Creating layer drop6
I1204 21:05:31.169455  2139 net.cpp:106] Creating Layer drop6
I1204 21:05:31.169459  2139 net.cpp:454] drop6 <- fc6
I1204 21:05:31.169471  2139 net.cpp:397] drop6 -> fc6 (in-place)
I1204 21:05:31.169540  2139 net.cpp:150] Setting up drop6
I1204 21:05:31.169546  2139 net.cpp:157] Top shape: 64 4096 (262144)
I1204 21:05:31.169549  2139 net.cpp:165] Memory required for data: 7369785600
I1204 21:05:31.169553  2139 layer_factory.hpp:77] Creating layer fc7
I1204 21:05:31.169582  2139 net.cpp:106] Creating Layer fc7
I1204 21:05:31.169603  2139 net.cpp:454] fc7 <- fc6
I1204 21:05:31.169631  2139 net.cpp:411] fc7 -> fc7
I1204 21:05:31.214368  2139 net.cpp:150] Setting up fc7
I1204 21:05:31.214398  2139 net.cpp:157] Top shape: 64 4096 (262144)
I1204 21:05:31.214419  2139 net.cpp:165] Memory required for data: 7370834176
I1204 21:05:31.214454  2139 layer_factory.hpp:77] Creating layer relu7
I1204 21:05:31.214506  2139 net.cpp:106] Creating Layer relu7
I1204 21:05:31.214532  2139 net.cpp:454] relu7 <- fc7
I1204 21:05:31.214581  2139 net.cpp:397] relu7 -> fc7 (in-place)
I1204 21:05:31.214980  2139 net.cpp:150] Setting up relu7
I1204 21:05:31.215008  2139 net.cpp:157] Top shape: 64 4096 (262144)
I1204 21:05:31.215011  2139 net.cpp:165] Memory required for data: 7371882752
I1204 21:05:31.215016  2139 layer_factory.hpp:77] Creating layer drop7
I1204 21:05:31.215030  2139 net.cpp:106] Creating Layer drop7
I1204 21:05:31.215036  2139 net.cpp:454] drop7 <- fc7
I1204 21:05:31.215080  2139 net.cpp:397] drop7 -> fc7 (in-place)
I1204 21:05:31.215167  2139 net.cpp:150] Setting up drop7
I1204 21:05:31.215190  2139 net.cpp:157] Top shape: 64 4096 (262144)
I1204 21:05:31.215209  2139 net.cpp:165] Memory required for data: 7372931328
I1204 21:05:31.215214  2139 layer_factory.hpp:77] Creating layer cls_label
I1204 21:05:31.215240  2139 net.cpp:106] Creating Layer cls_label
I1204 21:05:31.215265  2139 net.cpp:454] cls_label <- fc7
I1204 21:05:31.215296  2139 net.cpp:411] cls_label -> cls_label
I1204 21:05:31.223127  2139 net.cpp:150] Setting up cls_label
I1204 21:05:31.223155  2139 net.cpp:157] Top shape: 64 650 (41600)
I1204 21:05:31.223160  2139 net.cpp:165] Memory required for data: 7373097728
I1204 21:05:31.223212  2139 layer_factory.hpp:77] Creating layer loss_cls
I1204 21:05:31.223284  2139 net.cpp:106] Creating Layer loss_cls
I1204 21:05:31.223295  2139 net.cpp:454] loss_cls <- cls_label
I1204 21:05:31.223328  2139 net.cpp:454] loss_cls <- label
I1204 21:05:31.223341  2139 net.cpp:411] loss_cls -> loss_cls
…
I1204 21:05:31.224982  2139 net.cpp:322] The NetState phase (1) differed from the phase (0) specified by a rule in layer data
I1204 21:05:31.225229  2139 net.cpp:49] Initializing net from parameters: 
name: "VGG_FACE_16_layers"
state {
  phase: TEST
}
layer {
  name: "data"
  type: "Data"
  top: "data"
  top: "label"
  include {
    phase: TEST
  }
  transform_param {
    mirror: false
    crop_size: 224
    mean_file: "/home/deepir/data/batch_1_1/train_lmdb/mean.binaryproto"
  }
  data_param {
    source: "/home/deepir/data/batch_1_1/val_lmdb"
    batch_size: 64
    backend: LMDB
  }
}
layer {
  name: "conv1_1"
  type: "Convolution"
  bottom: "data"
  top: "conv1_1"
  param {
    lr_mult: 0
    decay_mult: 0
  }
  param {
    lr_mult: 0
    decay_mult: 0
  }
  convolution_param {
    num_output: 64
    pad: 1
    kernel_size: 3
  }
}
layer {
  name: "relu1_1"
  type: "ReLU"
  bottom: "conv1_1"
  top: "conv1_1"
}
layer {
  name: "conv1_2"
  type: "Convolution"
  bottom: "conv1_1"
  top: "conv1_2"
  param {
    lr_mult: 0
    decay_mult: 0
  }
  param {
    lr_mult: 0
    decay_mult: 0
  }
  convolution_param {
    num_output: 64
    pad: 1
    kernel_size: 3
  }
}
layer {
  name: "relu1_2"
  type: "ReLU"
  bottom: "conv1_2"
  top: "conv1_2"
}
layer {
  name: "pool1"
  type: "Pooling"
  bottom: "conv1_2"
  top: "pool1"
  pooling_param {
    pool: MAX
    kernel_size: 2
    stride: 2
  }
}
layer {
  name: "conv2_1"
  type: "Convolution"
  bottom: "pool1"
  top: "conv2_1"
  param {
    lr_mult: 0
    decay_mult: 0
  }
  param {
    lr_mult: 0
    decay_mult: 0
  }
  convolution_param {
    num_output: 128
    pad: 1
    kernel_size: 3
  }
}
layer {
  name: "relu2_1"
  type: "ReLU"
  bottom: "conv2_1"
  top: "conv2_1"
}
layer {
  name: "conv2_2"
  type: "Convolution"
  bottom: "conv2_1"
  top: "conv2_2"
  param {
    lr_mult: 0
    decay_mult: 0
  }
  param {
    lr_mult: 0
    decay_mult: 0
  }
  convolution_param {
    num_output: 128
    pad: 1
    kernel_size: 3
  }
}
layer {
  name: "relu2_2"
  type: "ReLU"
  bottom: "conv2_2"
  top: "conv2_2"
}
layer {
  name: "pool2"
  type: "Pooling"
  bottom: "conv2_2"
  top: "pool2"
  pooling_param {
    pool: MAX
    kernel_size: 2
    stride: 2
  }
}
layer {
  name: "conv3_1"
  type: "Convolution"
  bottom: "pool2"
  top: "conv3_1"
  param {
    lr_mult: 1
  }
  param {
    lr_mult: 2
  }
  convolution_param {
    num_output: 256
    pad: 1
    kernel_size: 3
  }
}
layer {
  name: "relu3_1"
  type: "ReLU"
  bottom: "conv3_1"
  top: "conv3_1"
}
layer {
  name: "conv3_2"
  type: "Convolution"
  bottom: "conv3_1"
  top: "conv3_2"
  param {
    lr_mult: 1
  }
  param {
    lr_mult: 2
  }
  convolution_param {
    num_output: 256
    pad: 1
    kernel_size: 3
  }
}
layer {
  name: "relu3_2"
  type: "ReLU"
  bottom: "conv3_2"
  top: "conv3_2"
}
layer {
  name: "conv3_3"
  type: "Convolution"
  bottom: "conv3_2"
  top: "conv3_3"
  param {
    lr_mult: 1
  }
  param {
    lr_mult: 2
  }
  convolution_param {
    num_output: 256
    pad: 1
    kernel_size: 3
  }
}
layer {
  name: "relu3_3"
  type: "ReLU"
  bottom: "conv3_3"
  top: "conv3_3"
}
layer {
  name: "pool3"
  type: "Pooling"
  bottom: "conv3_3"
  top: "pool3"
  pooling_param {
    pool: MAX
    kernel_size: 2
    stride: 2
  }
}
layer {
  name: "conv4_1"
  type: "Convolution"
  bottom: "pool3"
  top: "conv4_1"
  param {
    lr_mult: 1
  }
  param {
    lr_mult: 2
  }
  convolution_param {
    num_output: 512
    pad: 1
    kernel_size: 3
  }
}
layer {
  name: "relu4_1"
  type: "ReLU"
  bottom: "conv4_1"
  top: "conv4_1"
}
layer {
  name: "conv4_2"
  type: "Convolution"
  bottom: "conv4_1"
  top: "conv4_2"
  param {
    lr_mult: 1
  }
  param {
    lr_mult: 2
  }
  convolution_param {
    num_output: 512
    pad: 1
    kernel_size: 3
  }
}
layer {
  name: "relu4_2"
  type: "ReLU"
  bottom: "conv4_2"
  top: "conv4_2"
}
layer {
  name: "conv4_3"
  type: "Convolution"
  bottom: "conv4_2"
  top: "conv4_3"
  param {
    lr_mult: 1
  }
  param {
    lr_mult: 2
  }
  convolution_param {
    num_output: 512
    pad: 1
    kernel_size: 3
  }
}
layer {
  name: "relu4_3"
  type: "ReLU"
  bottom: "conv4_3"
  top: "conv4_3"
}
layer {
  name: "pool4"
  type: "Pooling"
  bottom: "conv4_3"
  top: "pool4"
  pooling_param {
    pool: MAX
    kernel_size: 2
    stride: 2
  }
}
layer {
  name: "conv5_1"
  type: "Convolution"
  bottom: "pool4"
  top: "conv5_1"
  param {
    lr_mult: 1
  }
  param {
    lr_mult: 2
  }
  convolution_param {
    num_output: 512
    pad: 1
    kernel_size: 3
  }
}
layer {
  name: "relu5_1"
  type: "ReLU"
  bottom: "conv5_1"
  top: "conv5_1"
}
layer {
  name: "conv5_2"
  type: "Convolution"
  bottom: "conv5_1"
  top: "conv5_2"
  param {
    lr_mult: 1
  }
  param {
    lr_mult: 2
  }
  convolution_param {
    num_output: 512
    pad: 1
    kernel_size: 3
  }
}
layer {
  name: "relu5_2"
  type: "ReLU"
  bottom: "conv5_2"
  top: "conv5_2"
}
layer {
  name: "conv5_3"
  type: "Convolution"
  bottom: "conv5_2"
  top: "conv5_3"
  param {
    lr_mult: 1
  }
  param {
    lr_mult: 2
  }
  convolution_param {
    num_output: 512
    pad: 1
    kernel_size: 3
  }
}
layer {
  name: "relu5_3"
  type: "ReLU"
  bottom: "conv5_3"
  top: "conv5_3"
}
layer {
  name: "pool5"
  type: "Pooling"
  bottom: "conv5_3"
  top: "pool5"
  pooling_param {
    pool: MAX
    kernel_size: 2
    stride: 2
  }
}
layer {
  name: "fc6"
  type: "InnerProduct"
  bottom: "pool5"
  top: "fc6"
  param {
    lr_mult: 1
  }
  param {
    lr_mult: 2
  }
  inner_product_param {
    num_output: 4096
  }
}
layer {
  name: "relu6"
  type: "ReLU"
  bottom: "fc6"
  top: "fc6"
}
layer {
  name: "drop6"
  type: "Dropout"
  bottom: "fc6"
  top: "fc6"
  dropout_param {
    dropout_ratio: 0.5
  }
}
layer {
  name: "fc7"
  type: "InnerProduct"
  bottom: "fc6"
  top: "fc7"
  param {
    lr_mult: 1
  }
  param {
    lr_mult: 2
  }
  inner_product_param {
    num_output: 4096
  }
}
layer {
  name: "relu7"
  type: "ReLU"
  bottom: "fc7"
  top: "fc7"
}
layer {
  name: "drop7"
  type: "Dropout"
  bottom: "fc7"
  top: "fc7"
  dropout_param {
    dropout_ratio: 0.5
  }
}
layer {
  name: "cls_label"
  type: "InnerProduct"
  bottom: "fc7"
  top: "cls_label"
  inner_product_param {
    num_output: 650
  }
}
layer {
  name: "loss_cls"
  type: "SoftmaxWithLoss"
  bottom: "cls_label"
  bottom: "label"
  top: "loss_cls"
  loss_weight: 1
  propagate_down: true
  propagate_down: false
}
layer {
  name: "accuracy"
  type: "Accuracy"
  bottom: "cls_label"
  bottom: "label"
  top: "accuracy"
  include {
    phase: TEST
  }
}
I1204 21:05:31.225587  2139 layer_factory.hpp:77] Creating layer data
I1204 21:05:31.225728  2139 net.cpp:106] Creating Layer data
I1204 21:05:31.225741  2139 net.cpp:411] data -> data
I1204 21:05:31.225761  2139 net.cpp:411] data -> label
I1204 21:05:31.225776  2139 data_transformer.cpp:25] Loading mean file from: /home/deepir/data/batch_1_1/train_lmdb/mean.binaryproto
I1204 21:05:31.226441  2148 db_lmdb.cpp:38] Opened lmdb /home/deepir/data/batch_1_1/val_lmdb
I1204 21:05:31.231241  2139 data_layer.cpp:41] output data size: 64,3,224,224
I1204 21:05:31.288585  2139 base_data_layer.cpp:69] Initializing prefetch
I1204 21:05:31.288758  2139 base_data_layer.cpp:72] Prefetch initialized.
I1204 21:05:31.288785  2139 net.cpp:150] Setting up data
I1204 21:05:31.288828  2139 net.cpp:157] Top shape: 64 3 224 224 (9633792)
I1204 21:05:31.288838  2139 net.cpp:157] Top shape: 64 (64)
I1204 21:05:31.288841  2139 net.cpp:165] Memory required for data: 38535424
I1204 21:05:31.288868  2139 layer_factory.hpp:77] Creating layer label_data_1_split
I1204 21:05:31.288934  2139 net.cpp:106] Creating Layer label_data_1_split
I1204 21:05:31.288945  2139 net.cpp:454] label_data_1_split <- label
I1204 21:05:31.289002  2139 net.cpp:411] label_data_1_split -> label_data_1_split_0
I1204 21:05:31.289060  2139 net.cpp:411] label_data_1_split -> label_data_1_split_1
I1204 21:05:31.289153  2139 net.cpp:150] Setting up label_data_1_split
I1204 21:05:31.289180  2139 net.cpp:157] Top shape: 64 (64)
I1204 21:05:31.289185  2139 net.cpp:157] Top shape: 64 (64)
I1204 21:05:31.289187  2139 net.cpp:165] Memory required for data: 38535936
I1204 21:05:31.289208  2139 layer_factory.hpp:77] Creating layer conv1_1
I1204 21:05:31.289227  2139 net.cpp:106] Creating Layer conv1_1
I1204 21:05:31.289233  2139 net.cpp:454] conv1_1 <- data
I1204 21:05:31.289247  2139 net.cpp:411] conv1_1 -> conv1_1
I1204 21:05:31.296669  2139 net.cpp:150] Setting up conv1_1
I1204 21:05:31.296689  2139 net.cpp:157] Top shape: 64 64 224 224 (205520896)
I1204 21:05:31.296692  2139 net.cpp:165] Memory required for data: 860619520
I1204 21:05:31.296754  2139 layer_factory.hpp:77] Creating layer relu1_1
I1204 21:05:31.296793  2139 net.cpp:106] Creating Layer relu1_1
I1204 21:05:31.296800  2139 net.cpp:454] relu1_1 <- conv1_1
I1204 21:05:31.296846  2139 net.cpp:397] relu1_1 -> conv1_1 (in-place)
I1204 21:05:31.297186  2139 net.cpp:150] Setting up relu1_1
I1204 21:05:31.297196  2139 net.cpp:157] Top shape: 64 64 224 224 (205520896)
I1204 21:05:31.297199  2139 net.cpp:165] Memory required for data: 1682703104
I1204 21:05:31.297233  2139 layer_factory.hpp:77] Creating layer conv1_2
I1204 21:05:31.297271  2139 net.cpp:106] Creating Layer conv1_2
I1204 21:05:31.297294  2139 net.cpp:454] conv1_2 <- conv1_1
I1204 21:05:31.297325  2139 net.cpp:411] conv1_2 -> conv1_2
I1204 21:05:31.298774  2139 net.cpp:150] Setting up conv1_2
I1204 21:05:31.298789  2139 net.cpp:157] Top shape: 64 64 224 224 (205520896)
I1204 21:05:31.298791  2139 net.cpp:165] Memory required for data: 2504786688
I1204 21:05:31.298831  2139 layer_factory.hpp:77] Creating layer relu1_2
I1204 21:05:31.298843  2139 net.cpp:106] Creating Layer relu1_2
I1204 21:05:31.298866  2139 net.cpp:454] relu1_2 <- conv1_2
I1204 21:05:31.298895  2139 net.cpp:397] relu1_2 -> conv1_2 (in-place)
I1204 21:05:31.299232  2139 net.cpp:150] Setting up relu1_2
I1204 21:05:31.299257  2139 net.cpp:157] Top shape: 64 64 224 224 (205520896)
I1204 21:05:31.299260  2139 net.cpp:165] Memory required for data: 3326870272
I1204 21:05:31.299265  2139 layer_factory.hpp:77] Creating layer pool1
I1204 21:05:31.299279  2139 net.cpp:106] Creating Layer pool1
I1204 21:05:31.299302  2139 net.cpp:454] pool1 <- conv1_2
I1204 21:05:31.299330  2139 net.cpp:411] pool1 -> pool1
I1204 21:05:31.299465  2139 net.cpp:150] Setting up pool1
I1204 21:05:31.299492  2139 net.cpp:157] Top shape: 64 64 112 112 (51380224)
I1204 21:05:31.299495  2139 net.cpp:165] Memory required for data: 3532391168
I1204 21:05:31.299500  2139 layer_factory.hpp:77] Creating layer conv2_1
I1204 21:05:31.299530  2139 net.cpp:106] Creating Layer conv2_1
I1204 21:05:31.299536  2139 net.cpp:454] conv2_1 <- pool1
I1204 21:05:31.299548  2139 net.cpp:411] conv2_1 -> conv2_1
I1204 21:05:31.300725  2139 cudnn_conv_layer.cpp:194] Reallocating workspace storage: 6912
I1204 21:05:31.300746  2139 net.cpp:150] Setting up conv2_1
I1204 21:05:31.300771  2139 net.cpp:157] Top shape: 64 128 112 112 (102760448)
I1204 21:05:31.300775  2139 net.cpp:165] Memory required for data: 3943432960
I1204 21:05:31.300794  2139 layer_factory.hpp:77] Creating layer relu2_1
I1204 21:05:31.300827  2139 net.cpp:106] Creating Layer relu2_1
I1204 21:05:31.300833  2139 net.cpp:454] relu2_1 <- conv2_1
I1204 21:05:31.300845  2139 net.cpp:397] relu2_1 -> conv2_1 (in-place)
I1204 21:05:31.300994  2139 net.cpp:150] Setting up relu2_1
I1204 21:05:31.301041  2139 net.cpp:157] Top shape: 64 128 112 112 (102760448)
I1204 21:05:31.301055  2139 net.cpp:165] Memory required for data: 4354474752
I1204 21:05:31.301069  2139 layer_factory.hpp:77] Creating layer conv2_2
I1204 21:05:31.301113  2139 net.cpp:106] Creating Layer conv2_2
I1204 21:05:31.301129  2139 net.cpp:454] conv2_2 <- conv2_1
I1204 21:05:31.301154  2139 net.cpp:411] conv2_2 -> conv2_2
I1204 21:05:31.302709  2139 cudnn_conv_layer.cpp:194] Reallocating workspace storage: 13824
I1204 21:05:31.302762  2139 net.cpp:150] Setting up conv2_2
I1204 21:05:31.302775  2139 net.cpp:157] Top shape: 64 128 112 112 (102760448)
I1204 21:05:31.302778  2139 net.cpp:165] Memory required for data: 4765516544
I1204 21:05:31.302795  2139 layer_factory.hpp:77] Creating layer relu2_2
I1204 21:05:31.302850  2139 net.cpp:106] Creating Layer relu2_2
I1204 21:05:31.302857  2139 net.cpp:454] relu2_2 <- conv2_2
I1204 21:05:31.302877  2139 net.cpp:397] relu2_2 -> conv2_2 (in-place)
I1204 21:05:31.303201  2139 net.cpp:150] Setting up relu2_2
I1204 21:05:31.303236  2139 net.cpp:157] Top shape: 64 128 112 112 (102760448)
I1204 21:05:31.303241  2139 net.cpp:165] Memory required for data: 5176558336
I1204 21:05:31.303246  2139 layer_factory.hpp:77] Creating layer pool2
I1204 21:05:31.303262  2139 net.cpp:106] Creating Layer pool2
I1204 21:05:31.303269  2139 net.cpp:454] pool2 <- conv2_2
I1204 21:05:31.303283  2139 net.cpp:411] pool2 -> pool2
I1204 21:05:31.303344  2139 net.cpp:150] Setting up pool2
I1204 21:05:31.303354  2139 net.cpp:157] Top shape: 64 128 56 56 (25690112)
I1204 21:05:31.303356  2139 net.cpp:165] Memory required for data: 5279318784
I1204 21:05:31.303361  2139 layer_factory.hpp:77] Creating layer conv3_1
I1204 21:05:31.303400  2139 net.cpp:106] Creating Layer conv3_1
I1204 21:05:31.303434  2139 net.cpp:454] conv3_1 <- pool2
I1204 21:05:31.303448  2139 net.cpp:411] conv3_1 -> conv3_1
I1204 21:05:31.305372  2139 cudnn_conv_layer.cpp:194] Reallocating workspace storage: 13824
I1204 21:05:31.305428  2139 net.cpp:150] Setting up conv3_1
I1204 21:05:31.305440  2139 net.cpp:157] Top shape: 64 256 56 56 (51380224)
I1204 21:05:31.305464  2139 net.cpp:165] Memory required for data: 5484839680
I1204 21:05:31.305524  2139 layer_factory.hpp:77] Creating layer relu3_1
I1204 21:05:31.305580  2139 net.cpp:106] Creating Layer relu3_1
I1204 21:05:31.305588  2139 net.cpp:454] relu3_1 <- conv3_1
I1204 21:05:31.305600  2139 net.cpp:397] relu3_1 -> conv3_1 (in-place)
I1204 21:05:31.305891  2139 net.cpp:150] Setting up relu3_1
I1204 21:05:31.305901  2139 net.cpp:157] Top shape: 64 256 56 56 (51380224)
I1204 21:05:31.305904  2139 net.cpp:165] Memory required for data: 5690360576
I1204 21:05:31.305909  2139 layer_factory.hpp:77] Creating layer conv3_2
I1204 21:05:31.305959  2139 net.cpp:106] Creating Layer conv3_2
I1204 21:05:31.305965  2139 net.cpp:454] conv3_2 <- conv3_1
I1204 21:05:31.306012  2139 net.cpp:411] conv3_2 -> conv3_2
I1204 21:05:31.308972  2139 cudnn_conv_layer.cpp:194] Reallocating workspace storage: 27648
I1204 21:05:31.308997  2139 net.cpp:150] Setting up conv3_2
I1204 21:05:31.309026  2139 net.cpp:157] Top shape: 64 256 56 56 (51380224)
I1204 21:05:31.309029  2139 net.cpp:165] Memory required for data: 5895881472
I1204 21:05:31.309046  2139 layer_factory.hpp:77] Creating layer relu3_2
I1204 21:05:31.309098  2139 net.cpp:106] Creating Layer relu3_2
I1204 21:05:31.309110  2139 net.cpp:454] relu3_2 <- conv3_2
I1204 21:05:31.309144  2139 net.cpp:397] relu3_2 -> conv3_2 (in-place)
I1204 21:05:31.309535  2139 net.cpp:150] Setting up relu3_2
I1204 21:05:31.309545  2139 net.cpp:157] Top shape: 64 256 56 56 (51380224)
I1204 21:05:31.309548  2139 net.cpp:165] Memory required for data: 6101402368
I1204 21:05:31.309553  2139 layer_factory.hpp:77] Creating layer conv3_3
I1204 21:05:31.309592  2139 net.cpp:106] Creating Layer conv3_3
I1204 21:05:31.309598  2139 net.cpp:454] conv3_3 <- conv3_2
I1204 21:05:31.309645  2139 net.cpp:411] conv3_3 -> conv3_3
I1204 21:05:31.312381  2139 cudnn_conv_layer.cpp:194] Reallocating workspace storage: 27648
I1204 21:05:31.312403  2139 net.cpp:150] Setting up conv3_3
I1204 21:05:31.312430  2139 net.cpp:157] Top shape: 64 256 56 56 (51380224)
I1204 21:05:31.312433  2139 net.cpp:165] Memory required for data: 6306923264
I1204 21:05:31.312448  2139 layer_factory.hpp:77] Creating layer relu3_3
I1204 21:05:31.312479  2139 net.cpp:106] Creating Layer relu3_3
I1204 21:05:31.312506  2139 net.cpp:454] relu3_3 <- conv3_3
I1204 21:05:31.312538  2139 net.cpp:397] relu3_3 -> conv3_3 (in-place)
I1204 21:05:31.312783  2139 net.cpp:150] Setting up relu3_3
I1204 21:05:31.312791  2139 net.cpp:157] Top shape: 64 256 56 56 (51380224)
I1204 21:05:31.312794  2139 net.cpp:165] Memory required for data: 6512444160
I1204 21:05:31.312799  2139 layer_factory.hpp:77] Creating layer pool3
I1204 21:05:31.312829  2139 net.cpp:106] Creating Layer pool3
I1204 21:05:31.312834  2139 net.cpp:454] pool3 <- conv3_3
I1204 21:05:31.312863  2139 net.cpp:411] pool3 -> pool3
I1204 21:05:31.312978  2139 net.cpp:150] Setting up pool3
I1204 21:05:31.312988  2139 net.cpp:157] Top shape: 64 256 28 28 (12845056)
I1204 21:05:31.312990  2139 net.cpp:165] Memory required for data: 6563824384
I1204 21:05:31.312994  2139 layer_factory.hpp:77] Creating layer conv4_1
I1204 21:05:31.313025  2139 net.cpp:106] Creating Layer conv4_1
I1204 21:05:31.313046  2139 net.cpp:454] conv4_1 <- pool3
I1204 21:05:31.313076  2139 net.cpp:411] conv4_1 -> conv4_1
I1204 21:05:31.317674  2139 cudnn_conv_layer.cpp:194] Reallocating workspace storage: 27648
I1204 21:05:31.317726  2139 net.cpp:150] Setting up conv4_1
I1204 21:05:31.317744  2139 net.cpp:157] Top shape: 64 512 28 28 (25690112)
I1204 21:05:31.317749  2139 net.cpp:165] Memory required for data: 6666584832
I1204 21:05:31.317772  2139 layer_factory.hpp:77] Creating layer relu4_1
I1204 21:05:31.317860  2139 net.cpp:106] Creating Layer relu4_1
I1204 21:05:31.317873  2139 net.cpp:454] relu4_1 <- conv4_1
I1204 21:05:31.317893  2139 net.cpp:397] relu4_1 -> conv4_1 (in-place)
I1204 21:05:31.318197  2139 net.cpp:150] Setting up relu4_1
I1204 21:05:31.318223  2139 net.cpp:157] Top shape: 64 512 28 28 (25690112)
I1204 21:05:31.318226  2139 net.cpp:165] Memory required for data: 6769345280
I1204 21:05:31.318231  2139 layer_factory.hpp:77] Creating layer conv4_2
I1204 21:05:31.318253  2139 net.cpp:106] Creating Layer conv4_2
I1204 21:05:31.318275  2139 net.cpp:454] conv4_2 <- conv4_1
I1204 21:05:31.318289  2139 net.cpp:411] conv4_2 -> conv4_2
I1204 21:05:31.327033  2139 cudnn_conv_layer.cpp:194] Reallocating workspace storage: 55296
I1204 21:05:31.327059  2139 net.cpp:150] Setting up conv4_2
I1204 21:05:31.327087  2139 net.cpp:157] Top shape: 64 512 28 28 (25690112)
I1204 21:05:31.327090  2139 net.cpp:165] Memory required for data: 6872105728
I1204 21:05:31.327162  2139 layer_factory.hpp:77] Creating layer relu4_2
I1204 21:05:31.327186  2139 net.cpp:106] Creating Layer relu4_2
I1204 21:05:31.327214  2139 net.cpp:454] relu4_2 <- conv4_2
I1204 21:05:31.327246  2139 net.cpp:397] relu4_2 -> conv4_2 (in-place)
I1204 21:05:31.327489  2139 net.cpp:150] Setting up relu4_2
I1204 21:05:31.327513  2139 net.cpp:157] Top shape: 64 512 28 28 (25690112)
I1204 21:05:31.327517  2139 net.cpp:165] Memory required for data: 6974866176
I1204 21:05:31.327538  2139 layer_factory.hpp:77] Creating layer conv4_3
I1204 21:05:31.327553  2139 net.cpp:106] Creating Layer conv4_3
I1204 21:05:31.327559  2139 net.cpp:454] conv4_3 <- conv4_2
I1204 21:05:31.327590  2139 net.cpp:411] conv4_3 -> conv4_3
I1204 21:05:31.336323  2139 cudnn_conv_layer.cpp:194] Reallocating workspace storage: 55296
I1204 21:05:31.336352  2139 net.cpp:150] Setting up conv4_3
I1204 21:05:31.336382  2139 net.cpp:157] Top shape: 64 512 28 28 (25690112)
I1204 21:05:31.336386  2139 net.cpp:165] Memory required for data: 7077626624
I1204 21:05:31.336423  2139 layer_factory.hpp:77] Creating layer relu4_3
I1204 21:05:31.336489  2139 net.cpp:106] Creating Layer relu4_3
I1204 21:05:31.336503  2139 net.cpp:454] relu4_3 <- conv4_3
I1204 21:05:31.336522  2139 net.cpp:397] relu4_3 -> conv4_3 (in-place)
I1204 21:05:31.336877  2139 net.cpp:150] Setting up relu4_3
I1204 21:05:31.336889  2139 net.cpp:157] Top shape: 64 512 28 28 (25690112)
I1204 21:05:31.336891  2139 net.cpp:165] Memory required for data: 7180387072
I1204 21:05:31.336897  2139 layer_factory.hpp:77] Creating layer pool4
I1204 21:05:31.336930  2139 net.cpp:106] Creating Layer pool4
I1204 21:05:31.336936  2139 net.cpp:454] pool4 <- conv4_3
I1204 21:05:31.336966  2139 net.cpp:411] pool4 -> pool4
I1204 21:05:31.337093  2139 net.cpp:150] Setting up pool4
I1204 21:05:31.337102  2139 net.cpp:157] Top shape: 64 512 14 14 (6422528)
I1204 21:05:31.337122  2139 net.cpp:165] Memory required for data: 7206077184
I1204 21:05:31.337126  2139 layer_factory.hpp:77] Creating layer conv5_1
I1204 21:05:31.337177  2139 net.cpp:106] Creating Layer conv5_1
I1204 21:05:31.337198  2139 net.cpp:454] conv5_1 <- pool4
I1204 21:05:31.337213  2139 net.cpp:411] conv5_1 -> conv5_1
I1204 21:05:31.345142  2139 cudnn_conv_layer.cpp:194] Reallocating workspace storage: 55296
I1204 21:05:31.345167  2139 net.cpp:150] Setting up conv5_1
I1204 21:05:31.345214  2139 net.cpp:157] Top shape: 64 512 14 14 (6422528)
I1204 21:05:31.345218  2139 net.cpp:165] Memory required for data: 7231767296
I1204 21:05:31.345238  2139 layer_factory.hpp:77] Creating layer relu5_1
I1204 21:05:31.345263  2139 net.cpp:106] Creating Layer relu5_1
I1204 21:05:31.345271  2139 net.cpp:454] relu5_1 <- conv5_1
I1204 21:05:31.345289  2139 net.cpp:397] relu5_1 -> conv5_1 (in-place)
I1204 21:05:31.345610  2139 net.cpp:150] Setting up relu5_1
I1204 21:05:31.345638  2139 net.cpp:157] Top shape: 64 512 14 14 (6422528)
I1204 21:05:31.345641  2139 net.cpp:165] Memory required for data: 7257457408
I1204 21:05:31.345648  2139 layer_factory.hpp:77] Creating layer conv5_2
I1204 21:05:31.345703  2139 net.cpp:106] Creating Layer conv5_2
I1204 21:05:31.345710  2139 net.cpp:454] conv5_2 <- conv5_1
I1204 21:05:31.345741  2139 net.cpp:411] conv5_2 -> conv5_2
I1204 21:05:31.355191  2139 cudnn_conv_layer.cpp:194] Reallocating workspace storage: 55296
I1204 21:05:31.355404  2139 net.cpp:150] Setting up conv5_2
I1204 21:05:31.355420  2139 net.cpp:157] Top shape: 64 512 14 14 (6422528)
I1204 21:05:31.355423  2139 net.cpp:165] Memory required for data: 7283147520
I1204 21:05:31.355463  2139 layer_factory.hpp:77] Creating layer relu5_2
I1204 21:05:31.355499  2139 net.cpp:106] Creating Layer relu5_2
I1204 21:05:31.355525  2139 net.cpp:454] relu5_2 <- conv5_2
I1204 21:05:31.355558  2139 net.cpp:397] relu5_2 -> conv5_2 (in-place)
I1204 21:05:31.355754  2139 net.cpp:150] Setting up relu5_2
I1204 21:05:31.355763  2139 net.cpp:157] Top shape: 64 512 14 14 (6422528)
I1204 21:05:31.355767  2139 net.cpp:165] Memory required for data: 7308837632
I1204 21:05:31.355772  2139 layer_factory.hpp:77] Creating layer conv5_3
I1204 21:05:31.355788  2139 net.cpp:106] Creating Layer conv5_3
I1204 21:05:31.355794  2139 net.cpp:454] conv5_3 <- conv5_2
I1204 21:05:31.355824  2139 net.cpp:411] conv5_3 -> conv5_3
I1204 21:05:31.363730  2149 data_layer.cpp:102] Prefetch batch: 73 ms.
I1204 21:05:31.363771  2149 data_layer.cpp:103]      Read time: 0.121 ms.
I1204 21:05:31.363776  2149 data_layer.cpp:104] Transform time: 66.946 ms.
I1204 21:05:31.364689  2139 cudnn_conv_layer.cpp:194] Reallocating workspace storage: 55296
I1204 21:05:31.364714  2139 net.cpp:150] Setting up conv5_3
I1204 21:05:31.364748  2139 net.cpp:157] Top shape: 64 512 14 14 (6422528)
I1204 21:05:31.364750  2139 net.cpp:165] Memory required for data: 7334527744
I1204 21:05:31.364786  2139 layer_factory.hpp:77] Creating layer relu5_3
I1204 21:05:31.364864  2139 net.cpp:106] Creating Layer relu5_3
I1204 21:05:31.364873  2139 net.cpp:454] relu5_3 <- conv5_3
I1204 21:05:31.364925  2139 net.cpp:397] relu5_3 -> conv5_3 (in-place)
I1204 21:05:31.365257  2139 net.cpp:150] Setting up relu5_3
I1204 21:05:31.365267  2139 net.cpp:157] Top shape: 64 512 14 14 (6422528)
I1204 21:05:31.365269  2139 net.cpp:165] Memory required for data: 7360217856
I1204 21:05:31.365274  2139 layer_factory.hpp:77] Creating layer pool5
I1204 21:05:31.365300  2139 net.cpp:106] Creating Layer pool5
I1204 21:05:31.365324  2139 net.cpp:454] pool5 <- conv5_3
I1204 21:05:31.365355  2139 net.cpp:411] pool5 -> pool5
I1204 21:05:31.365432  2139 net.cpp:150] Setting up pool5
I1204 21:05:31.365442  2139 net.cpp:157] Top shape: 64 512 7 7 (1605632)
I1204 21:05:31.365444  2139 net.cpp:165] Memory required for data: 7366640384
I1204 21:05:31.365449  2139 layer_factory.hpp:77] Creating layer fc6
I1204 21:05:31.365461  2139 net.cpp:106] Creating Layer fc6
I1204 21:05:31.365484  2139 net.cpp:454] fc6 <- pool5
I1204 21:05:31.365514  2139 net.cpp:411] fc6 -> fc6
I1204 21:05:31.507256  2149 data_layer.cpp:102] Prefetch batch: 70 ms.
I1204 21:05:31.507331  2149 data_layer.cpp:103]      Read time: 0.13 ms.
I1204 21:05:31.507354  2149 data_layer.cpp:104] Transform time: 63.507 ms.
I1204 21:05:31.581691  2149 data_layer.cpp:102] Prefetch batch: 68 ms.
I1204 21:05:31.581737  2149 data_layer.cpp:103]      Read time: 0.093 ms.
I1204 21:05:31.581743  2149 data_layer.cpp:104] Transform time: 61.775 ms.
I1204 21:05:31.664361  2139 net.cpp:150] Setting up fc6
I1204 21:05:31.664389  2139 net.cpp:157] Top shape: 64 4096 (262144)
I1204 21:05:31.664410  2139 net.cpp:165] Memory required for data: 7367688960
I1204 21:05:31.664428  2139 layer_factory.hpp:77] Creating layer relu6
I1204 21:05:31.664455  2139 net.cpp:106] Creating Layer relu6
I1204 21:05:31.664484  2139 net.cpp:454] relu6 <- fc6
I1204 21:05:31.664533  2139 net.cpp:397] relu6 -> fc6 (in-place)
I1204 21:05:31.664793  2139 net.cpp:150] Setting up relu6
I1204 21:05:31.664800  2139 net.cpp:157] Top shape: 64 4096 (262144)
I1204 21:05:31.664803  2139 net.cpp:165] Memory required for data: 7368737536
I1204 21:05:31.664808  2139 layer_factory.hpp:77] Creating layer drop6
I1204 21:05:31.664865  2139 net.cpp:106] Creating Layer drop6
I1204 21:05:31.664890  2139 net.cpp:454] drop6 <- fc6
I1204 21:05:31.664919  2139 net.cpp:397] drop6 -> fc6 (in-place)
I1204 21:05:31.665021  2139 net.cpp:150] Setting up drop6
I1204 21:05:31.665045  2139 net.cpp:157] Top shape: 64 4096 (262144)
I1204 21:05:31.665047  2139 net.cpp:165] Memory required for data: 7369786112
I1204 21:05:31.665051  2139 layer_factory.hpp:77] Creating layer fc7
I1204 21:05:31.665065  2139 net.cpp:106] Creating Layer fc7
I1204 21:05:31.665069  2139 net.cpp:454] fc7 <- fc6
I1204 21:05:31.665081  2139 net.cpp:411] fc7 -> fc7
I1204 21:05:31.709983  2139 net.cpp:150] Setting up fc7
I1204 21:05:31.710052  2139 net.cpp:157] Top shape: 64 4096 (262144)
I1204 21:05:31.710055  2139 net.cpp:165] Memory required for data: 7370834688
I1204 21:05:31.710113  2139 layer_factory.hpp:77] Creating layer relu7
I1204 21:05:31.710141  2139 net.cpp:106] Creating Layer relu7
I1204 21:05:31.710151  2139 net.cpp:454] relu7 <- fc7
I1204 21:05:31.710201  2139 net.cpp:397] relu7 -> fc7 (in-place)
I1204 21:05:31.710659  2139 net.cpp:150] Setting up relu7
I1204 21:05:31.710669  2139 net.cpp:157] Top shape: 64 4096 (262144)
I1204 21:05:31.710671  2139 net.cpp:165] Memory required for data: 7371883264
I1204 21:05:31.710677  2139 layer_factory.hpp:77] Creating layer drop7
I1204 21:05:31.710708  2139 net.cpp:106] Creating Layer drop7
I1204 21:05:31.710713  2139 net.cpp:454] drop7 <- fc7
I1204 21:05:31.710742  2139 net.cpp:397] drop7 -> fc7 (in-place)
I1204 21:05:31.710835  2139 net.cpp:150] Setting up drop7
I1204 21:05:31.710841  2139 net.cpp:157] Top shape: 64 4096 (262144)
I1204 21:05:31.710844  2139 net.cpp:165] Memory required for data: 7372931840
I1204 21:05:31.710849  2139 layer_factory.hpp:77] Creating layer cls_label
I1204 21:05:31.710877  2139 net.cpp:106] Creating Layer cls_label
I1204 21:05:31.710882  2139 net.cpp:454] cls_label <- fc7
I1204 21:05:31.710893  2139 net.cpp:411] cls_label -> cls_label
I1204 21:05:31.718778  2139 net.cpp:150] Setting up cls_label
I1204 21:05:31.718807  2139 net.cpp:157] Top shape: 64 650 (41600)
I1204 21:05:31.718811  2139 net.cpp:165] Memory required for data: 7373098240
I1204 21:05:31.718845  2139 layer_factory.hpp:77] Creating layer cls_label_cls_label_0_split
I1204 21:05:31.718902  2139 net.cpp:106] Creating Layer cls_label_cls_label_0_split
I1204 21:05:31.718914  2139 net.cpp:454] cls_label_cls_label_0_split <- cls_label
I1204 21:05:31.718935  2139 net.cpp:411] cls_label_cls_label_0_split -> cls_label_cls_label_0_split_0
I1204 21:05:31.718969  2139 net.cpp:411] cls_label_cls_label_0_split -> cls_label_cls_label_0_split_1
I1204 21:05:31.719081  2139 net.cpp:150] Setting up cls_label_cls_label_0_split
I1204 21:05:31.719089  2139 net.cpp:157] Top shape: 64 650 (41600)
I1204 21:05:31.719092  2139 net.cpp:157] Top shape: 64 650 (41600)
I1204 21:05:31.719112  2139 net.cpp:165] Memory required for data: 7373431040
I1204 21:05:31.719116  2139 layer_factory.hpp:77] Creating layer loss_cls
I1204 21:05:31.719141  2139 net.cpp:106] Creating Layer loss_cls
I1204 21:05:31.719146  2139 net.cpp:454] loss_cls <- cls_label_cls_label_0_split_0
I1204 21:05:31.719156  2139 net.cpp:454] loss_cls <- label_data_1_split_0
I1204 21:05:31.719197  2139 net.cpp:411] loss_cls -> loss_cls
…
